…
      "diff_aug": true,
      "ada": false,
      "ada_target": "N/A",
      "ada_length": "N/A"
    }
  }
}
[INFO] 2021-10-14 12:23:15 > Load train datasets...
[INFO] 2021-10-14 12:23:29 > Train dataset size : 185177
[INFO] 2021-10-14 12:23:29 > Load valid datasets...
[INFO] 2021-10-14 12:23:29 > Eval dataset size : 2500
[INFO] 2021-10-14 12:23:29 > Build model...
[INFO] 2021-10-14 12:23:29 > Modules are located on models.big_resnet.
[INFO] 2021-10-14 12:23:45 > Prepare EMA for G with decay of 0.9999.
[INFO] 2021-10-14 12:23:45 > Number of parameters: 70312388
[INFO] 2021-10-14 12:23:45 > Generator(
  (linear0): Linear(in_features=20, out_features=24576, bias=True)
  (shared): Linear(in_features=50, out_features=128, bias=False)
  (blocks): ModuleList(
    (0): ModuleList(
      (0): GenBlock(
        (bn1): ConditionalBatchNorm2d_for_skip_and_shared(
          (bn): BatchNorm2d(1536, eps=0.0001, momentum=0.1, affine=False, track_running_stats=True)
          (gain): Linear(in_features=148, out_features=1536, bias=False)
          (bias): Linear(in_features=148, out_features=1536, bias=False)
        )
        (bn2): ConditionalBatchNorm2d_for_skip_and_shared(
          (bn): BatchNorm2d(1536, eps=0.0001, momentum=0.1, affine=False, track_running_stats=True)
          (gain): Linear(in_features=148, out_features=1536, bias=False)
          (bias): Linear(in_features=148, out_features=1536, bias=False)
        )
        (activation): ReLU(inplace=True)
        (conv2d0): Conv2d(1536, 1536, kernel_size=(1, 1), stride=(1, 1))
        (conv2d1): Conv2d(1536, 1536, kernel_size=(3, 3), stride=(1, 1), padding=(1, 1))
        (conv2d2): Conv2d(1536, 1536, kernel_size=(3, 3), stride=(1, 1), padding=(1, 1))
      )
    )
    (1): ModuleList(
      (0): GenBlock(
        (bn1): ConditionalBatchNorm2d_for_skip_and_shared(
          (bn): BatchNorm2d(1536, eps=0.0001, momentum=0.1, affine=False, track_running_stats=True)
          (gain): Linear(in_features=148, out_features=1536, bias=False)
          (bias): Linear(in_features=148, out_features=1536, bias=False)
        )
        (bn2): ConditionalBatchNorm2d_for_skip_and_shared(
          (bn): BatchNorm2d(768, eps=0.0001, momentum=0.1, affine=False, track_running_stats=True)
          (gain): Linear(in_features=148, out_features=768, bias=False)
          (bias): Linear(in_features=148, out_features=768, bias=False)
        )
        (activation): ReLU(inplace=True)
        (conv2d0): Conv2d(1536, 768, kernel_size=(1, 1), stride=(1, 1))
        (conv2d1): Conv2d(1536, 768, kernel_size=(3, 3), stride=(1, 1), padding=(1, 1))
        (conv2d2): Conv2d(768, 768, kernel_size=(3, 3), stride=(1, 1), padding=(1, 1))
      )
    )
    (2): ModuleList(
      (0): GenBlock(
        (bn1): ConditionalBatchNorm2d_for_skip_and_shared(
          (bn): BatchNorm2d(768, eps=0.0001, momentum=0.1, affine=False, track_running_stats=True)
          (gain): Linear(in_features=148, out_features=768, bias=False)
          (bias): Linear(in_features=148, out_features=768, bias=False)
        )
        (bn2): ConditionalBatchNorm2d_for_skip_and_shared(
          (bn): BatchNorm2d(384, eps=0.0001, momentum=0.1, affine=False, track_running_stats=True)
          (gain): Linear(in_features=148, out_features=384, bias=False)
          (bias): Linear(in_features=148, out_features=384, bias=False)
        )
        (activation): ReLU(inplace=True)
        (conv2d0): Conv2d(768, 384, kernel_size=(1, 1), stride=(1, 1))
        (conv2d1): Conv2d(768, 384, kernel_size=(3, 3), stride=(1, 1), padding=(1, 1))
        (conv2d2): Conv2d(384, 384, kernel_size=(3, 3), stride=(1, 1), padding=(1, 1))
      )
    )
    (3): ModuleList(
      (0): GenBlock(
        (bn1): ConditionalBatchNorm2d_for_skip_and_shared(
          (bn): BatchNorm2d(384, eps=0.0001, momentum=0.1, affine=False, track_running_stats=True)
          (gain): Linear(in_features=148, out_features=384, bias=False)
          (bias): Linear(in_features=148, out_features=384, bias=False)
        )
        (bn2): ConditionalBatchNorm2d_for_skip_and_shared(
          (bn): BatchNorm2d(192, eps=0.0001, momentum=0.1, affine=False, track_running_stats=True)
          (gain): Linear(in_features=148, out_features=192, bias=False)
          (bias): Linear(in_features=148, out_features=192, bias=False)
        )
        (activation): ReLU(inplace=True)
        (conv2d0): Conv2d(384, 192, kernel_size=(1, 1), stride=(1, 1))
        (conv2d1): Conv2d(384, 192, kernel_size=(3, 3), stride=(1, 1), padding=(1, 1))
        (conv2d2): Conv2d(192, 192, kernel_size=(3, 3), stride=(1, 1), padding=(1, 1))
      )
    )
    (4): ModuleList(
      (0): Self_Attn(
        (conv1x1_theta): Conv2d(192, 24, kernel_size=(1, 1), stride=(1, 1), bias=False)
        (conv1x1_phi): Conv2d(192, 24, kernel_size=(1, 1), stride=(1, 1), bias=False)
        (conv1x1_g): Conv2d(192, 96, kernel_size=(1, 1), stride=(1, 1), bias=False)
        (conv1x1_attn): Conv2d(96, 192, kernel_size=(1, 1), stride=(1, 1), bias=False)
        (maxpool): MaxPool2d(kernel_size=2, stride=2, padding=0, dilation=1, ceil_mode=False)
        (softmax): Softmax(dim=-1)
      )
    )
    (5): ModuleList(
      (0): GenBlock(
        (bn1): ConditionalBatchNorm2d_for_skip_and_shared(
          (bn): BatchNorm2d(192, eps=0.0001, momentum=0.1, affine=False, track_running_stats=True)
          (gain): Linear(in_features=148, out_features=192, bias=False)
          (bias): Linear(in_features=148, out_features=192, bias=False)
        )
        (bn2): ConditionalBatchNorm2d_for_skip_and_shared(
          (bn): BatchNorm2d(96, eps=0.0001, momentum=0.1, affine=False, track_running_stats=True)
          (gain): Linear(in_features=148, out_features=96, bias=False)
          (bias): Linear(in_features=148, out_features=96, bias=False)
        )
        (activation): ReLU(inplace=True)
        (conv2d0): Conv2d(192, 96, kernel_size=(1, 1), stride=(1, 1))
        (conv2d1): Conv2d(192, 96, kernel_size=(3, 3), stride=(1, 1), padding=(1, 1))
        (conv2d2): Conv2d(96, 96, kernel_size=(3, 3), stride=(1, 1), padding=(1, 1))
      )
    )
  )
  (bn4): BatchNorm2d(96, eps=0.0001, momentum=0.1, affine=True, track_running_stats=True)
  (activation): ReLU(inplace=True)
  (conv2d5): Conv2d(96, 3, kernel_size=(3, 3), stride=(1, 1), padding=(1, 1))
  (tanh): Tanh()
)
[INFO] 2021-10-14 12:23:45 > Number of parameters: 86600020
[INFO] 2021-10-14 12:23:45 > Discriminator(
  (blocks): ModuleList(
    (0): ModuleList(
      (0): DiscOptBlock(
        (conv2d0): Conv2d(3, 96, kernel_size=(1, 1), stride=(1, 1))
        (conv2d1): Conv2d(3, 96, kernel_size=(3, 3), stride=(1, 1), padding=(1, 1))
        (conv2d2): Conv2d(96, 96, kernel_size=(3, 3), stride=(1, 1), padding=(1, 1))
        (activation): ReLU(inplace=True)
        (average_pooling): AvgPool2d(kernel_size=2, stride=2, padding=0)
      )
    )
    (1): ModuleList(
      (0): Self_Attn(
        (conv1x1_theta): Conv2d(96, 12, kernel_size=(1, 1), stride=(1, 1), bias=False)
        (conv1x1_phi): Conv2d(96, 12, kernel_size=(1, 1), stride=(1, 1), bias=False)
        (conv1x1_g): Conv2d(96, 48, kernel_size=(1, 1), stride=(1, 1), bias=False)
        (conv1x1_attn): Conv2d(48, 96, kernel_size=(1, 1), stride=(1, 1), bias=False)
        (maxpool): MaxPool2d(kernel_size=2, stride=2, padding=0, dilation=1, ceil_mode=False)
        (softmax): Softmax(dim=-1)
      )
    )
    (2): ModuleList(
      (0): DiscBlock(
        (activation): ReLU(inplace=True)
        (conv2d0): Conv2d(96, 192, kernel_size=(1, 1), stride=(1, 1))
        (conv2d1): Conv2d(96, 192, kernel_size=(3, 3), stride=(1, 1), padding=(1, 1))
        (conv2d2): Conv2d(192, 192, kernel_size=(3, 3), stride=(1, 1), padding=(1, 1))
        (average_pooling): AvgPool2d(kernel_size=2, stride=2, padding=0)
      )
    )
    (3): ModuleList(
      (0): DiscBlock(
        (activation): ReLU(inplace=True)
        (conv2d0): Conv2d(192, 384, kernel_size=(1, 1), stride=(1, 1))
        (conv2d1): Conv2d(192, 384, kernel_size=(3, 3), stride=(1, 1), padding=(1, 1))
        (conv2d2): Conv2d(384, 384, kernel_size=(3, 3), stride=(1, 1), padding=(1, 1))
        (average_pooling): AvgPool2d(kernel_size=2, stride=2, padding=0)
      )
    )
    (4): ModuleList(
      (0): DiscBlock(
        (activation): ReLU(inplace=True)
        (conv2d0): Conv2d(384, 768, kernel_size=(1, 1), stride=(1, 1))
        (conv2d1): Conv2d(384, 768, kernel_size=(3, 3), stride=(1, 1), padding=(1, 1))
        (conv2d2): Conv2d(768, 768, kernel_size=(3, 3), stride=(1, 1), padding=(1, 1))
        (average_pooling): AvgPool2d(kernel_size=2, stride=2, padding=0)
      )
    )
    (5): ModuleList(
      (0): DiscBlock(
        (activation): ReLU(inplace=True)
        (conv2d0): Conv2d(768, 1536, kernel_size=(1, 1), stride=(1, 1))
        (conv2d1): Conv2d(768, 1536, kernel_size=(3, 3), stride=(1, 1), padding=(1, 1))
        (conv2d2): Conv2d(1536, 1536, kernel_size=(3, 3), stride=(1, 1), padding=(1, 1))
        (average_pooling): AvgPool2d(kernel_size=2, stride=2, padding=0)
      )
    )
    (6): ModuleList(
      (0): DiscBlock(
        (activation): ReLU(inplace=True)
        (conv2d1): Conv2d(1536, 1536, kernel_size=(3, 3), stride=(1, 1), padding=(1, 1))
        (conv2d2): Conv2d(1536, 1536, kernel_size=(3, 3), stride=(1, 1), padding=(1, 1))
        (average_pooling): AvgPool2d(kernel_size=2, stride=2, padding=0)
      )
    )
  )
  (activation): ReLU(inplace=True)
  (conditional_head): ConditionalHead(
    (linear1): Linear(in_features=1536, out_features=1, bias=True)
    (embedding): Linear(in_features=50, out_features=1536, bias=False)
    (linear4): Linear(in_features=1536, out_features=50, bias=True)
  )
  (embedding): Linear(in_features=50, out_features=1536, bias=False)
)
[INFO] 2021-10-14 12:23:45 > Calculate moments of valid dataset
[INFO] 2021-10-14 12:24:08 > Save calculated means and covariances to disk...
[INFO] 2021-10-14 12:24:08 > calculate inception score of valid dataset.
[INFO] 2021-10-14 12:24:11 > Inception score=45.688419342041016-Inception_std=nan
[INFO] 2021-10-14 12:24:11 > Start training....
[INFO] 2021-10-14 12:25:36 > Step:     100 Progress: 0.0% Elapsed: 0:01:25 temperature: no ada_p: No Discriminator_loss: 3.08104 Generator_loss: -0.0415494 Classification_loss: 3.92922 
…
